…
name : head.regression_head.conv.1.0.bias, requires_grad : True
name : head.regression_head.conv.2.0.weight, requires_grad : True
name : head.regression_head.conv.2.0.bias, requires_grad : True
name : head.regression_head.conv.3.0.weight, requires_grad : True
name : head.regression_head.conv.3.0.bias, requires_grad : True
name : head.regression_head.bbox_reg.weight, requires_grad : True
name : head.regression_head.bbox_reg.bias, requires_grad : True
model : DistributedDataParallel(
  (module): RetinaNet(
    (backbone): BackboneWithADNFPN(
      (body): IntermediateLayerGetter(
        (model): ResNet(
          (conv1): Conv2d(3, 64, kernel_size=(7, 7), stride=(2, 2), padding=(3, 3), bias=False)
          (bn1): FrozenBatchNorm2d(64, eps=1e-05)
          (relu): ReLU(inplace=True)
          (maxpool): MaxPool2d(kernel_size=3, stride=2, padding=1, dilation=1, ceil_mode=False)
          (layer1): SkippableSequentialBlocks(
            (0): Bottleneck(
              (conv1): Conv2d(64, 64, kernel_size=(1, 1), stride=(1, 1), bias=False)
              (bn1): FrozenBatchNorm2d(64, eps=1e-05)
              (conv2): Conv2d(64, 64, kernel_size=(3, 3), stride=(1, 1), padding=(1, 1), bias=False)
              (bn2): FrozenBatchNorm2d(64, eps=1e-05)
              (conv3): Conv2d(64, 256, kernel_size=(1, 1), stride=(1, 1), bias=False)
              (bn3): FrozenBatchNorm2d(256, eps=1e-05)
              (relu): ReLU(inplace=True)
              (downsample): Sequential(
                (0): Conv2d(64, 256, kernel_size=(1, 1), stride=(1, 1), bias=False)
                (1): FrozenBatchNorm2d(256, eps=1e-05)
              )
              (bn1_skip): FrozenBatchNorm2d(64, eps=1e-05)
              (bn2_skip): FrozenBatchNorm2d(64, eps=1e-05)
              (bn3_skip): FrozenBatchNorm2d(256, eps=1e-05)
            )
            (1): Bottleneck(
              (conv1): Conv2d(256, 64, kernel_size=(1, 1), stride=(1, 1), bias=False)
              (bn1): FrozenBatchNorm2d(64, eps=1e-05)
              (conv2): Conv2d(64, 64, kernel_size=(3, 3), stride=(1, 1), padding=(1, 1), bias=False)
              (bn2): FrozenBatchNorm2d(64, eps=1e-05)
              (conv3): Conv2d(64, 256, kernel_size=(1, 1), stride=(1, 1), bias=False)
              (bn3): FrozenBatchNorm2d(256, eps=1e-05)
              (relu): ReLU(inplace=True)
              (bn1_skip): FrozenBatchNorm2d(64, eps=1e-05)
              (bn2_skip): FrozenBatchNorm2d(64, eps=1e-05)
              (bn3_skip): FrozenBatchNorm2d(256, eps=1e-05)
            )
            (2): Bottleneck(
              (conv1): Conv2d(256, 64, kernel_size=(1, 1), stride=(1, 1), bias=False)
              (bn1): FrozenBatchNorm2d(64, eps=1e-05)
              (conv2): Conv2d(64, 64, kernel_size=(3, 3), stride=(1, 1), padding=(1, 1), bias=False)
              (bn2): FrozenBatchNorm2d(64, eps=1e-05)
              (conv3): Conv2d(64, 256, kernel_size=(1, 1), stride=(1, 1), bias=False)
              (bn3): FrozenBatchNorm2d(256, eps=1e-05)
              (relu): ReLU(inplace=True)
            )
          )
          (layer2): SkippableSequentialBlocks(
            (0): Bottleneck(
              (conv1): Conv2d(256, 128, kernel_size=(1, 1), stride=(1, 1), bias=False)
              (bn1): FrozenBatchNorm2d(128, eps=1e-05)
              (conv2): Conv2d(128, 128, kernel_size=(3, 3), stride=(2, 2), padding=(1, 1), bias=False)
              (bn2): FrozenBatchNorm2d(128, eps=1e-05)
              (conv3): Conv2d(128, 512, kernel_size=(1, 1), stride=(1, 1), bias=False)
              (bn3): FrozenBatchNorm2d(512, eps=1e-05)
              (relu): ReLU(inplace=True)
              (downsample): Sequential(
                (0): Conv2d(256, 512, kernel_size=(1, 1), stride=(2, 2), bias=False)
                (1): FrozenBatchNorm2d(512, eps=1e-05)
              )
              (bn1_skip): FrozenBatchNorm2d(128, eps=1e-05)
              (bn2_skip): FrozenBatchNorm2d(128, eps=1e-05)
              (bn3_skip): FrozenBatchNorm2d(512, eps=1e-05)
            )
            (1): Bottleneck(
              (conv1): Conv2d(512, 128, kernel_size=(1, 1), stride=(1, 1), bias=False)
              (bn1): FrozenBatchNorm2d(128, eps=1e-05)
              (conv2): Conv2d(128, 128, kernel_size=(3, 3), stride=(1, 1), padding=(1, 1), bias=False)
              (bn2): FrozenBatchNorm2d(128, eps=1e-05)
              (conv3): Conv2d(128, 512, kernel_size=(1, 1), stride=(1, 1), bias=False)
              (bn3): FrozenBatchNorm2d(512, eps=1e-05)
              (relu): ReLU(inplace=True)
              (bn1_skip): FrozenBatchNorm2d(128, eps=1e-05)
              (bn2_skip): FrozenBatchNorm2d(128, eps=1e-05)
              (bn3_skip): FrozenBatchNorm2d(512, eps=1e-05)
            )
            (2): Bottleneck(
              (conv1): Conv2d(512, 128, kernel_size=(1, 1), stride=(1, 1), bias=False)
              (bn1): FrozenBatchNorm2d(128, eps=1e-05)
              (conv2): Conv2d(128, 128, kernel_size=(3, 3), stride=(1, 1), padding=(1, 1), bias=False)
              (bn2): FrozenBatchNorm2d(128, eps=1e-05)
              (conv3): Conv2d(128, 512, kernel_size=(1, 1), stride=(1, 1), bias=False)
              (bn3): FrozenBatchNorm2d(512, eps=1e-05)
              (relu): ReLU(inplace=True)
            )
            (3): Bottleneck(
              (conv1): Conv2d(512, 128, kernel_size=(1, 1), stride=(1, 1), bias=False)
              (bn1): FrozenBatchNorm2d(128, eps=1e-05)
              (conv2): Conv2d(128, 128, kernel_size=(3, 3), stride=(1, 1), padding=(1, 1), bias=False)
              (bn2): FrozenBatchNorm2d(128, eps=1e-05)
              (conv3): Conv2d(128, 512, kernel_size=(1, 1), stride=(1, 1), bias=False)
              (bn3): FrozenBatchNorm2d(512, eps=1e-05)
              (relu): ReLU(inplace=True)
            )
          )
          (layer3): SkippableSequentialBlocks(
            (0): Bottleneck(
              (conv1): Conv2d(512, 256, kernel_size=(1, 1), stride=(1, 1), bias=False)
              (bn1): FrozenBatchNorm2d(256, eps=1e-05)
              (conv2): Conv2d(256, 256, kernel_size=(3, 3), stride=(2, 2), padding=(1, 1), bias=False)
              (bn2): FrozenBatchNorm2d(256, eps=1e-05)
              (conv3): Conv2d(256, 1024, kernel_size=(1, 1), stride=(1, 1), bias=False)
              (bn3): FrozenBatchNorm2d(1024, eps=1e-05)
              (relu): ReLU(inplace=True)
              (downsample): Sequential(
                (0): Conv2d(512, 1024, kernel_size=(1, 1), stride=(2, 2), bias=False)
                (1): FrozenBatchNorm2d(1024, eps=1e-05)
              )
              (bn1_skip): FrozenBatchNorm2d(256, eps=1e-05)
              (bn2_skip): FrozenBatchNorm2d(256, eps=1e-05)
              (bn3_skip): FrozenBatchNorm2d(1024, eps=1e-05)
            )
            (1): Bottleneck(
              (conv1): Conv2d(1024, 256, kernel_size=(1, 1), stride=(1, 1), bias=False)
              (bn1): FrozenBatchNorm2d(256, eps=1e-05)
              (conv2): Conv2d(256, 256, kernel_size=(3, 3), stride=(1, 1), padding=(1, 1), bias=False)
              (bn2): FrozenBatchNorm2d(256, eps=1e-05)
              (conv3): Conv2d(256, 1024, kernel_size=(1, 1), stride=(1, 1), bias=False)
              (bn3): FrozenBatchNorm2d(1024, eps=1e-05)
              (relu): ReLU(inplace=True)
              (bn1_skip): FrozenBatchNorm2d(256, eps=1e-05)
              (bn2_skip): FrozenBatchNorm2d(256, eps=1e-05)
              (bn3_skip): FrozenBatchNorm2d(1024, eps=1e-05)
            )
            (2): Bottleneck(
              (conv1): Conv2d(1024, 256, kernel_size=(1, 1), stride=(1, 1), bias=False)
              (bn1): FrozenBatchNorm2d(256, eps=1e-05)
              (conv2): Conv2d(256, 256, kernel_size=(3, 3), stride=(1, 1), padding=(1, 1), bias=False)
              (bn2): FrozenBatchNorm2d(256, eps=1e-05)
              (conv3): Conv2d(256, 1024, kernel_size=(1, 1), stride=(1, 1), bias=False)
              (bn3): FrozenBatchNorm2d(1024, eps=1e-05)
              (relu): ReLU(inplace=True)
              (bn1_skip): FrozenBatchNorm2d(256, eps=1e-05)
              (bn2_skip): FrozenBatchNorm2d(256, eps=1e-05)
              (bn3_skip): FrozenBatchNorm2d(1024, eps=1e-05)
            )
            (3): Bottleneck(
              (conv1): Conv2d(1024, 256, kernel_size=(1, 1), stride=(1, 1), bias=False)
              (bn1): FrozenBatchNorm2d(256, eps=1e-05)
              (conv2): Conv2d(256, 256, kernel_size=(3, 3), stride=(1, 1), padding=(1, 1), bias=False)
              (bn2): FrozenBatchNorm2d(256, eps=1e-05)
              (conv3): Conv2d(256, 1024, kernel_size=(1, 1), stride=(1, 1), bias=False)
              (bn3): FrozenBatchNorm2d(1024, eps=1e-05)
              (relu): ReLU(inplace=True)
            )
            (4): Bottleneck(
              (conv1): Conv2d(1024, 256, kernel_size=(1, 1), stride=(1, 1), bias=False)
              (bn1): FrozenBatchNorm2d(256, eps=1e-05)
              (conv2): Conv2d(256, 256, kernel_size=(3, 3), stride=(1, 1), padding=(1, 1), bias=False)
              (bn2): FrozenBatchNorm2d(256, eps=1e-05)
              (conv3): Conv2d(256, 1024, kernel_size=(1, 1), stride=(1, 1), bias=False)
              (bn3): FrozenBatchNorm2d(1024, eps=1e-05)
              (relu): ReLU(inplace=True)
            )
            (5): Bottleneck(
              (conv1): Conv2d(1024, 256, kernel_size=(1, 1), stride=(1, 1), bias=False)
              (bn1): FrozenBatchNorm2d(256, eps=1e-05)
              (conv2): Conv2d(256, 256, kernel_size=(3, 3), stride=(1, 1), padding=(1, 1), bias=False)
              (bn2): FrozenBatchNorm2d(256, eps=1e-05)
              (conv3): Conv2d(256, 1024, kernel_size=(1, 1), stride=(1, 1), bias=False)
              (bn3): FrozenBatchNorm2d(1024, eps=1e-05)
              (relu): ReLU(inplace=True)
            )
          )
          (layer4): SkippableSequentialBlocks(
            (0): Bottleneck(
              (conv1): Conv2d(1024, 512, kernel_size=(1, 1), stride=(1, 1), bias=False)
              (bn1): FrozenBatchNorm2d(512, eps=1e-05)
              (conv2): Conv2d(512, 512, kernel_size=(3, 3), stride=(2, 2), padding=(1, 1), bias=False)
              (bn2): FrozenBatchNorm2d(512, eps=1e-05)
              (conv3): Conv2d(512, 2048, kernel_size=(1, 1), stride=(1, 1), bias=False)
              (bn3): FrozenBatchNorm2d(2048, eps=1e-05)
              (relu): ReLU(inplace=True)
              (downsample): Sequential(
                (0): Conv2d(1024, 2048, kernel_size=(1, 1), stride=(2, 2), bias=False)
                (1): FrozenBatchNorm2d(2048, eps=1e-05)
              )
              (bn1_skip): FrozenBatchNorm2d(512, eps=1e-05)
              (bn2_skip): FrozenBatchNorm2d(512, eps=1e-05)
              (bn3_skip): FrozenBatchNorm2d(2048, eps=1e-05)
            )
            (1): Bottleneck(
              (conv1): Conv2d(2048, 512, kernel_size=(1, 1), stride=(1, 1), bias=False)
              (bn1): FrozenBatchNorm2d(512, eps=1e-05)
              (conv2): Conv2d(512, 512, kernel_size=(3, 3), stride=(1, 1), padding=(1, 1), bias=False)
              (bn2): FrozenBatchNorm2d(512, eps=1e-05)
              (conv3): Conv2d(512, 2048, kernel_size=(1, 1), stride=(1, 1), bias=False)
              (bn3): FrozenBatchNorm2d(2048, eps=1e-05)
              (relu): ReLU(inplace=True)
              (bn1_skip): FrozenBatchNorm2d(512, eps=1e-05)
              (bn2_skip): FrozenBatchNorm2d(512, eps=1e-05)
              (bn3_skip): FrozenBatchNorm2d(2048, eps=1e-05)
            )
            (2): Bottleneck(
              (conv1): Conv2d(2048, 512, kernel_size=(1, 1), stride=(1, 1), bias=False)
              (bn1): FrozenBatchNorm2d(512, eps=1e-05)
              (conv2): Conv2d(512, 512, kernel_size=(3, 3), stride=(1, 1), padding=(1, 1), bias=False)
              (bn2): FrozenBatchNorm2d(512, eps=1e-05)
              (conv3): Conv2d(512, 2048, kernel_size=(1, 1), stride=(1, 1), bias=False)
              (bn3): FrozenBatchNorm2d(2048, eps=1e-05)
              (relu): ReLU(inplace=True)
            )
          )
        )
      )
      (fpn): FeaturePyramidNetwork(
        (inner_blocks): ModuleList(
          (0): Conv2dNormActivation(
            (0): Conv2d(512, 256, kernel_size=(1, 1), stride=(1, 1))
          )
          (1): Conv2dNormActivation(
            (0): Conv2d(1024, 256, kernel_size=(1, 1), stride=(1, 1))
          )
          (2): Conv2dNormActivation(
            (0): Conv2d(2048, 256, kernel_size=(1, 1), stride=(1, 1))
          )
        )
        (layer_blocks): ModuleList(
          (0-2): 3 x Conv2dNormActivation(
            (0): Conv2d(256, 256, kernel_size=(3, 3), stride=(1, 1), padding=(1, 1))
          )
        )
        (extra_blocks): LastLevelP6P7(
          (p6): Conv2d(256, 256, kernel_size=(3, 3), stride=(2, 2), padding=(1, 1))
          (p7): Conv2d(256, 256, kernel_size=(3, 3), stride=(2, 2), padding=(1, 1))
        )
      )
    )
    (anchor_generator): AnchorGenerator()
    (head): RetinaNetHead(
      (classification_head): RetinaNetClassificationHead(
        (conv): Sequential(
          (0): Conv2dNormActivation(
            (0): Conv2d(256, 256, kernel_size=(3, 3), stride=(1, 1), padding=(1, 1))
            (1): ReLU(inplace=True)
          )
          (1): Conv2dNormActivation(
            (0): Conv2d(256, 256, kernel_size=(3, 3), stride=(1, 1), padding=(1, 1))
            (1): ReLU(inplace=True)
          )
          (2): Conv2dNormActivation(
            (0): Conv2d(256, 256, kernel_size=(3, 3), stride=(1, 1), padding=(1, 1))
            (1): ReLU(inplace=True)
          )
          (3): Conv2dNormActivation(
            (0): Conv2d(256, 256, kernel_size=(3, 3), stride=(1, 1), padding=(1, 1))
            (1): ReLU(inplace=True)
          )
        )
        (cls_logits): Conv2d(256, 819, kernel_size=(3, 3), stride=(1, 1), padding=(1, 1))
      )
      (regression_head): RetinaNetRegressionHead(
        (conv): Sequential(
          (0): Conv2dNormActivation(
            (0): Conv2d(256, 256, kernel_size=(3, 3), stride=(1, 1), padding=(1, 1))
            (1): ReLU(inplace=True)
          )
          (1): Conv2dNormActivation(
            (0): Conv2d(256, 256, kernel_size=(3, 3), stride=(1, 1), padding=(1, 1))
            (1): ReLU(inplace=True)
          )
          (2): Conv2dNormActivation(
            (0): Conv2d(256, 256, kernel_size=(3, 3), stride=(1, 1), padding=(1, 1))
            (1): ReLU(inplace=True)
          )
          (3): Conv2dNormActivation(
            (0): Conv2d(256, 256, kernel_size=(3, 3), stride=(1, 1), padding=(1, 1))
            (1): ReLU(inplace=True)
          )
        )
        (bbox_reg): Conv2d(256, 36, kernel_size=(3, 3), stride=(1, 1), padding=(1, 1))
      )
    )
    (transform): GeneralizedRCNNTransform(
        Normalize(mean=[0.485, 0.456, 0.406], std=[0.229, 0.224, 0.225])
        Resize(min_size=(800,), max_size=1333, mode='bilinear')
    )
  )
)
#Params :  34014999
33792599
num_skippable_stages : 4
skip_cfg_supernet : [False, False, False, False]
skip_cfg_basenet : [True, True, True, True]
…
